mlkit/app/src/main/assets/automl/model.tflite (tflite, 451328 bytes, 53 tensors)

MobilenetV2/Conv/weights_quant/FakeQuantWithMinMaxVars u1 [16, 3, 3, 3] scale=0.03460057 zero_point=169
00000000: a4a5 a59b 93a1 b3bc afa9 abaa a099 a4b5
00000010: bdae a7a6 a8a7 a6a7 aeaf ad91 9c9a b5d1
00000020: d9e7 f8f8 9ca4 b49c 90c5 bba7 c591 9b9f
00000030: 939a af9c 9cb7 9b91 a099 8ca1 a29a a3af
00000040: b2ab abb0 a8af afac b7b7 b0b8 baaf b4b0
00000050: aea9 a9a9 a9a9 a9a9 a9a9 a9a9 a9a9 a9a9
00000060: a9a9 a9a9 a9a9 a9a9 a9a9 a9a9 b6cd b395
00000070: 8da0 a8a3 abbc cfb2 988e a1a9 a4aa b5b8
00000080: b2a3 a1a4 a69c a2a9 a9a9 a9a9 a9a9 a9a9
00000090: a9a9 a9a9 a9a9 a9a9 a9a9 a9a9 a9a9 a9a9
000000a0: a9a9 aca8 a6b2 a5a2 b2a7 a3b1 a8a3 b6a4
000000b0: 9eb1 a7a3 b3aa a2b2 a7a1 aba9 a6a9 a9a9
000000c0: a9a9 a9a9 a9a9 a9a9 a9a9 a9a9 a9a9 a9a9
000000d0: a9a9 a9a9 a9a9 a9a9 a5a7 a9a6 a7a9 a7a7
000000e0: a9a2 a1a7 a29f a7a7 a6a9 a3a4 a9a3 a5aa
000000f0: a7a7 aa98 c4a4 a2c3 91be 9e9a a3ae a2ac
-0.17300285 -0.13840228 -0.13840228 -0.484408 -0.7612126 -0.27680457 0.3460057 0.65741086
0.20760342 0.0 0.06920114 0.03460057 -0.31140512 -0.55360913 -0.17300285 0.41520685
0.6920114 0.17300285 -0.06920114 -0.10380171 -0.03460057 -0.06920114 -0.10380171 -0.06920114
0.17300285 0.20760342 0.13840228 -0.8304137 -0.4498074 -0.5190086 0.41520685 1.3840228
1.6608274 2.1452353 2.7334452 2.7334452 -0.4498074 -0.17300285 0.3806063 -0.4498074
-0.86501426 0.968816 0.62281024 -0.06920114 0.968816 -0.8304137 -0.484408 -0.3460057
-0.7612126 -0.5190086 0.20760342 -0.4498074 -0.4498074 0.484408 -0.484408 -0.8304137
-0.31140512 -0.55360913 -1.0034165 -0.27680457 -0.242204 -0.5190086 -0.20760342 0.20760342
0.31140512 0.06920114 0.06920114 0.242204 -0.03460057 0.20760342 0.20760342 0.10380171
0.484408 0.484408 0.242204 0.5190086 0.5882097 0.20760342 0.3806063 0.242204
0.17300285 0.0 0.0 0.0 0.0 0.0 0.0 0.0
0.0 0.0 0.0 0.0 0.0 0.0 0.0 0.0
0.0 0.0 0.0 0.0 0.0 0.0 0.0 0.0
0.0 0.0 0.0 0.0 0.4498074 1.2456205 0.3460057 -0.6920114
-0.968816 -0.31140512 -0.03460057 -0.20760342 0.06920114 0.65741086 1.3148217 0.31140512
-0.5882097 -0.9342154 -0.27680457 0.0 -0.17300285 0.03460057 0.41520685 0.5190086
0.31140512 -0.20760342 -0.27680457 -0.17300285 -0.10380171 -0.4498074 -0.242204 0.0
0.0 0.0 0.0 0.0 0.0 0.0 0.0 0.0
0.0 0.0 0.0 0.0 0.0 0.0 0.0 0.0
0.0 0.0 0.0 0.0 0.0 0.0 0.0 0.0
0.0 0.0 0.10380171 -0.03460057 -0.10380171 0.31140512 -0.13840228 -0.242204
0.31140512 -0.06920114 -0.20760342 0.27680457 -0.03460057 -0.20760342 0.4498074 -0.17300285
-0.3806063 0.27680457 -0.06920114 -0.20760342 0.3460057 0.03460057 -0.242204 0.31140512
-0.06920114 -0.27680457 0.06920114 0.0 -0.10380171 0.0 0.0 0.0
0.0 0.0 0.0 0.0 0.0 0.0 0.0 0.0
0.0 0.0 0.0 0.0 0.0 0.0 0.0 0.0
0.0 0.0 0.0 0.0 0.0 0.0 0.0 0.0
-0.13840228 -0.06920114 0.0 -0.10380171 -0.06920114 0.0 -0.06920114 -0.06920114
0.0 -0.242204 -0.27680457 -0.06920114 -0.242204 -0.3460057 -0.06920114 -0.06920114
-0.10380171 0.0 -0.20760342 -0.17300285 0.0 -0.20760342 -0.13840228 0.03460057
-0.06920114 -0.06920114 0.03460057 -0.5882097 0.9342154 -0.17300285 -0.242204 0.8996148
-0.8304137 0.726612 -0.3806063 -0.5190086 -0.20760342 0.17300285 -0.242204 0.10380171

MobilenetV2/Conv_1/weights_quant/FakeQuantWithMinMaxVars u1 [1280, 1, 1, 112] scale=0.0056747235 zero_point=147
00000000: a98a 9765 89ad 8e8d ac93 937f a17f 8f67
00000010: 65a9 b496 8a81 86ac 9a6a 88ae 6d8f 9592
00000020: 8b9c 9c8a a496 9bb2 a17c b67c a487 998b
00000030: 9981 9396 b17b 889e 9694 78a6 9193 9198
00000040: 8b80 8472 9a82 98a9 827b 978b a689 9690
00000050: a897 9e75 9078 8c8a 749b 9d94 8f8c a394
00000060: a388 7f67 b78f aba2 8290 8877 927e 7a9c
00000070: 9e74 9385 90a1 ab92 b172 a078 767c 767b
00000080: 6eb4 838b a1a4 8e7c aea4 97a4 8f9f 7da6
00000090: 8884 889b a18f 9978 937f 9a67 90a4 8e84
000000a0: 9d88 8a78 a287 7685 958b 868b 97a6 a18b
000000b0: 82a2 8d95 76a4 a78a a280 9c7d 81a8 708e
000000c0: 8f92 859b 8287 949b a28f 6295 868b 9d76
000000d0: 9289 7a8c 8695 a1cc 8b7a 977d af93 8b76
000000e0: a486 8d94 bd95 7e88 8986 b991 9175 7c9e
000000f0: 97a3 8293 9bb5 8e90 76a4 b281 8778 987a
0.12484392 -0.05107251 0.022698894 -0.2610373 -0.056747235 0.1475428 -0.028373618 -0.03404834
0.14186808 0.0 0.0 -0.11349447 0.07944613 -0.11349447 -0.022698894 -0.24968784
-0.2610373 0.12484392 0.18726587 0.01702417 -0.05107251 -0.10214502 -0.0737714 0.14186808
0.039723065 -0.23266366 -0.06242196 0.15321754 -0.2156395 -0.022698894 0.011349447 -0.0056747235
-0.04539779 0.05107251 0.05107251 -0.05107251 0.0964703 0.01702417 0.04539779 0.17591643
0.07944613 -0.13051865 0.19861533 -0.13051865 0.0964703 -0.06809668 0.03404834 -0.04539779
0.03404834 -0.10214502 0.0 0.01702417 0.17024171 -0.13619336 -0.06242196 0.06242196
0.01702417 0.0056747235 -0.15321754 0.10781975 -0.011349447 0.0 -0.011349447 0.028373618
-0.04539779 -0.10781975 -0.08512086 -0.18726587 0.039723065 -0.0964703 0.028373618 0.12484392
-0.0964703 -0.13619336 0.022698894 -0.04539779 0.10781975 -0.056747235 0.01702417 -0.01702417
0.11916919 0.022698894 0.06242196 -0.17024171 -0.01702417 -0.15321754 -0.039723065 -0.05107251
-0.17591643 0.04539779 0.056747235 0.0056747235 -0.022698894 -0.039723065 0.09079558 0.0056747235
0.09079558 -0.06242196 -0.11349447 -0.24968784 0.20429005 -0.022698894 0.13619336 0.08512086
-0.0964703 -0.01702417 -0.06242196 -0.15889226 -0.0056747235 -0.11916919 -0.14186808 0.05107251
0.06242196 -0.17591643 0.0 -0.07944613 -0.01702417 0.07944613 0.13619336 -0.0056747235
0.17024171 -0.18726587 0.0737714 -0.15321754 -0.16456698 -0.13051865 -0.16456698 -0.13619336
-0.20996477 0.18726587 -0.09079558 -0.04539779 0.07944613 0.0964703 -0.028373618 -0.13051865
0.15321754 0.0964703 0.022698894 0.0964703 -0.022698894 0.06809668 -0.12484392 0.10781975
-0.06242196 -0.08512086 -0.06242196 0.04539779 0.07944613 -0.022698894 0.03404834 -0.15321754
0.0 -0.11349447 0.039723065 -0.24968784 -0.01702417 0.0964703 -0.028373618 -0.08512086
0.056747235 -0.06242196 -0.05107251 -0.15321754 0.08512086 -0.06809668 -0.16456698 -0.07944613
0.011349447 -0.04539779 -0.0737714 -0.04539779 0.022698894 0.10781975 0.07944613 -0.04539779
-0.0964703 0.08512086 -0.03404834 0.011349447 -0.16456698 0.0964703 0.11349447 -0.05107251
0.08512086 -0.10781975 0.05107251 -0.12484392 -0.10214502 0.11916919 -0.19861533 -0.028373618
-0.022698894 -0.0056747235 -0.07944613 0.04539779 -0.0964703 -0.06809668 0.0056747235 0.04539779
0.08512086 -0.022698894 -0.27806145 0.011349447 -0.0737714 -0.04539779 0.056747235 -0.16456698
-0.0056747235 -0.056747235 -0.14186808 -0.039723065 -0.0737714 0.011349447 0.07944613 0.32345924
-0.04539779 -0.14186808 0.022698894 -0.12484392 0.15889226 0.0 -0.04539779 -0.16456698
0.0964703 -0.0737714 -0.03404834 0.0056747235 0.23833838 0.011349447 -0.11916919 -0.06242196
-0.056747235 -0.0737714 0.2156395 -0.011349447 -0.011349447 -0.17024171 -0.13051865 0.06242196
0.022698894 0.09079558 -0.0964703 0.0 0.04539779 0.1929406 -0.028373618 -0.01702417
-0.16456698 0.0964703 0.17591643 -0.10214502 -0.06809668 -0.15321754 0.028373618 -0.14186808

MobilenetV2/Logits/Conv2d_1c_1x1/weights_quant/FakeQuantWithMinMaxVars u1 [5, 1, 1, 1280] scale=0.0016433677 zero_point=120
00000000: 5f7a 54af 5a8a 8e27 c89b 8bb2 4b9f 6a5d
00000010: 857f 7578 8788 8937 6c59 7b2e bb7e ad27
00000020: 606b 8058 ada5 8e77 8f47 6388 a8b3 7eb1
00000030: ac72 8980 a7b9 79b2 9c33 7dcd 5b53 7674
00000040: 5fa8 96a1 b88c 767e c4b3 7695 61b8 b567
00000050: 6b4f 613e 5a9f 505b 9276 cb60 b0ed 7353
00000060: 57b8 a933 7557 4a61 a266 9964 ab5a a69e
00000070: 2f75 908b bca9 4f87 1376 54a6 c488 477b
00000080: 849f 2581 773e bb27 8979 d4b8 b49e 5c12
00000090: 654d 7836 327c 6e75 bdb4 8ba3 6fa8 8f73
000000a0: 2562 4e32 a031 a771 6799 979c 9f6e a064
000000b0: 7020 54bb bc69 6f81 856a 6ec1 2a60 5a46
000000c0: 8184 4543 8499 4b23 a6c3 3b5b bd76 546e
000000d0: a7b3 9cc4 0b77 418a 8f5c 34ca 5f45 a6b5
000000e0: 6159 b7bb 9b8e 4562 a888 5c79 5477 8c9e
000000f0: 7d77 93a2 8d5f 6e7d 488f 75ac 484c 679a
-0.041084193 0.0032867354 -0.05916124 0.09038522 -0.049301032 0.02958062 0.036154088 -0.13311279
0.13146941 0.057517868 0.031223986 0.09531533 -0.07395155 0.06409134 -0.023007147 -0.044370927
0.02136378 0.0115035735 -0.004930103 0.0 0.024650516 0.026293883 0.02793725 -0.1068189
-0.019720413 -0.0509444 0.004930103 -0.12160921 0.110105634 0.009860206 0.08709849 -0.13311279
-0.039440826 -0.02136378 0.013146942 -0.052587766 0.08709849 0.07395155 0.036154088 -0.0016433677
0.03779746 -0.08052502 -0.03451072 0.026293883 0.07888165 0.0969587 0.009860206 0.093671955
0.08545512 -0.009860206 0.02793725 0.013146942 0.077238284 0.1068189 0.0016433677 0.09531533
0.05916124 -0.11339237 0.008216838 0.13968626 -0.047657665 -0.060804605 -0.0032867354 -0.006573471
-0.041084193 0.07888165 0.049301032 0.067378074 0.10517553 0.032867353 -0.0032867354 0.009860206
0.124895945 0.0969587 -0.0032867354 0.047657665 -0.03779746 0.10517553 0.10024543 -0.02793725
-0.02136378 -0.067378074 -0.03779746 -0.09531533 -0.049301032 0.06409134 -0.06573471 -0.047657665
0.04272756 -0.0032867354 0.13639952 -0.039440826 0.09202859 0.19227402 -0.008216838 -0.060804605
-0.054231133 0.10517553 0.08052502 -0.11339237 -0.004930103 -0.054231133 -0.07559492 -0.03779746
0.06902144 -0.02958062 0.054231133 -0.032867353 0.08381175 -0.049301032 0.07559492 0.062447973
-0.119965844 -0.004930103 0.039440826 0.031223986 0.111749 0.08052502 -0.067378074 0.024650516
-0.16598013 -0.0032867354 -0.05916124 0.07559492 0.124895945 0.026293883 -0.08052502 0.004930103
0.019720413 0.06409134 -0.13639952 0.01479031 -0.0016433677 -0.09531533 0.110105634 -0.13311279
0.02793725 0.0016433677 0.15118983 0.10517553 0.098602064 0.062447973 -0.046014294 -0.1676235
-0.031223986 -0.07066481 0.0 -0.10846227 -0.115035735 0.006573471 -0.016433677 -0.004930103
0.11339237 0.098602064 0.031223986 0.07066481 -0.01479031 0.07888165 0.03779746 -0.008216838
-0.13639952 -0.036154088 -0.06902144 -0.115035735 0.06573471 -0.11667911 0.077238284 -0.0115035735
-0.02793725 0.054231133 0.0509444 0.05916124 0.06409134 -0.016433677 0.06573471 -0.032867353
-0.013146942 -0.14461635 -0.05916124 0.110105634 0.111749 -0.024650516 -0.01479031 0.01479031
0.02136378 -0.023007147 -0.016433677 0.119965844 -0.12818268 -0.039440826 -0.049301032 -0.082168385
0.01479031 0.019720413 -0.08381175 -0.08709849 0.019720413 0.054231133 -0.07395155 -0.13968626
0.07559492 0.12325258 -0.10024543 -0.047657665 0.11339237 -0.0032867354 -0.05916124 -0.016433677
0.077238284 0.0969587 0.05916124 0.124895945 -0.17912708 -0.0016433677 -0.09038522 0.02958062
0.03779746 -0.046014294 -0.111749 0.13475615 -0.041084193 -0.08381175 0.07559492 0.10024543
-0.03779746 -0.0509444 0.103532165 0.110105634 0.057517868 0.036154088 -0.08381175 -0.036154088
0.07888165 0.026293883 -0.046014294 0.0016433677 -0.05916124 -0.0016433677 0.032867353 0.062447973
0.008216838 -0.0016433677 0.044370927 0.06902144 0.03451072 -0.041084193 -0.016433677 0.008216838
-0.07888165 0.03779746 -0.004930103 0.08545512 -0.07888165 -0.072308175 -0.02793725 0.0558745

MobilenetV2/expanded_conv/depthwise/weights_quant/FakeQuantWithMinMaxVars u1 [1, 3, 3, 16] scale=0.16725358 zero_point=223
00000000: dedf dfa9 dfff e3de dfdd d66b dea2 dedf
00000010: dfdf e8c0 df77 e7e0 e8dc dba1 e7bc dfdf
00000020: dfdf de8d df6f d4e2 dce4 eb22 deb4 e0df
00000030: eae1 dfa9 dfda e3e1 deda d401 de9c e8df
00000040: d6e0 d6a9 e6ba e8e4 e1dd d510 ddb4 e0df
00000050: dedf df7d d862 dedf dfdf e253 dec6 d5df
00000060: dedd dfb9 dffc d5e3 dee2 f01d df8a dddf
00000070: e0de df99 dfe3 dde2 dbe2 e152 deab dfdf
00000080: e0df df5a e0c0 dfde dedf ddc7 df81 e1df
-0.16725358 0.0 0.0 -9.031693 0.0 5.3521147 0.66901433 -0.16725358
0.0 -0.33450717 -1.5052823 -19.401415 -0.16725358 -10.202469 -0.16725358 0.0
0.0 0.0 1.5052823 -5.184861 0.0 -17.394373 1.3380287 0.16725358
1.5052823 -0.5017607 -0.66901433 -10.369722 1.3380287 -5.8538756 0.0 0.0
0.0 0.0 -0.16725358 -13.714794 0.0 -18.7324 -1.8397894 0.5017607
-0.5017607 0.83626795 2.007043 -31.610928 -0.16725358 -7.191904 0.16725358 0.0
1.8397894 0.33450717 0.0 -9.031693 0.0 -0.83626795 0.66901433 0.33450717
-0.16725358 -0.83626795 -1.8397894 -37.130295 -0.16725358 -11.20599 1.5052823 0.0
-1.5052823 0.16725358 -1.5052823 -9.031693 1.170775 -6.1883826 1.5052823 0.83626795
0.33450717 -0.33450717 -1.6725359 -34.62149 -0.33450717 -7.191904 0.16725358 0.0
-0.16725358 0.0 0.0 -16.390852 -1.170775 -20.906698 -0.16725358 0.0
0.0 0.0 0.5017607 -23.415503 -0.16725358 -4.1813397 -1.6725359 0.0
-0.16725358 -0.33450717 0.0 -6.355636 0.0 4.8503537 -1.6725359 0.66901433
-0.16725358 0.5017607 2.8433108 -32.447197 0.0 -14.216555 -0.33450717 0.0
0.16725358 -0.16725358 0.0 -11.707751 0.0 0.66901433 -0.33450717 0.5017607
-0.66901433 0.5017607 0.33450717 -23.582756 -0.16725358 -8.697186 0.0 0.0
0.16725358 0.0 0.0 -22.244726 0.16725358 -5.184861 0.0 -0.16725358
-0.16725358 0.0 -0.33450717 -4.014086 0.0 -15.721837 0.33450717 0.0

MobilenetV2/expanded_conv/project/weights_quant/FakeQuantWithMinMaxVars u1 [8, 1, 1, 16] scale=0.06037105 zero_point=133
00000000: 8389 7985 7d85 3485 8f97 9085 8a85 798a
00000010: 6c76 2e85 9185 8985 9279 8585 7685 8d7e
00000020: 7c86 8985 9785 8d85 7e89 c585 8485 b986
00000030: 6e87 8c85 9a85 6e85 789b 4f85 8485 cb85
00000040: 9280 7885 0285 8b85 8571 8485 7a85 9c86
00000050: ed84 1d85 8c85 8585 6592 7e85 db85 8986
00000060: ff7a af85 8c85 7585 8e8a 8385 4485 928c
00000070: 8590 8e85 8285 8785 408e 8585 7c85 7c72
-0.1207421 0.2414842 -0.7244526 0.0 -0.4829684 0.0 -4.890055 0.0
0.6037105 1.0866789 0.6640815 0.0 0.30185524 0.0 -0.7244526 0.30185524
-1.5092763 -0.90556574 -5.252281 0.0 0.7244526 0.0 0.2414842 0.0
0.78482366 -0.7244526 0.0 0.0 -0.90556574 0.0 0.4829684 -0.42259735
-0.54333943 0.06037105 0.2414842 0.0 1.0866789 0.0 0.4829684 0.0
-0.42259735 0.2414842 3.8637471 0.0 -0.06037105 0.0 3.1392946 0.06037105
-1.3885341 0.1207421 0.42259735 0.0 1.267792 0.0 -1.3885341 0.0
-0.78482366 1.328163 -3.2600367 0.0 -0.06037105 0.0 4.2259736 0.0
0.78482366 -0.30185524 -0.78482366 0.0 -7.9086075 0.0 0.3622263 0.0
0.0 -1.207421 -0.06037105 0.0 -0.6640815 0.0 1.3885341 0.06037105
6.2785892 -0.06037105 -6.2785892 0.0 0.42259735 0.0 0.0 0.0
-1.9318736 0.78482366 -0.42259735 0.0 5.1919103 0.0 0.2414842 0.06037105
7.3652678 -0.6640815 2.535584 0.0 0.42259735 0.0 -0.9659368 0.0
0.54333943 0.30185524 -0.1207421 0.0 -3.9241183 0.0 0.78482366 0.42259735
0.0 0.6640815 0.54333943 0.0 -0.18111315 0.0 0.1207421 0.0
-4.165602 0.54333943 0.0 0.0 -0.54333943 0.0 -0.54333943 -1.1470499

MobilenetV2/expanded_conv_1/depthwise/weights_quant/FakeQuantWithMinMaxVars u1 [1, 3, 3, 48] scale=0.009485664 zero_point=130
00000000: 7ea4 b59c 8278 7b90 809f 8b85 907a 9e84
00000010: 7e84 866e 84a0 8274 5a68 788b 8437 8785
00000020: 698b 888d 918a 6179 7089 ac6b aa7b 7a80
00000030: 7ab2 c8b1 9d78 699b 76a9 a96d 8974 9a84
00000040: 8383 9478 b4a2 7f64 8744 859a 87d8 8888
00000050: 678e 8c91 948f f27c 7069 8881 c678 7881
00000060: 7f9c a391 9f7e 6c98 7891 946c 477c 8181
00000070: 8781 9b9a 8483 8073 8166 8799 7088 8384
00000080: 7783 8886 848c 3782 7c83 6469 9680 7e84
00000090: 7d83 bc9e 8773 7c96 7fa1 8d88 9777 a386
000000a0: 8092 8765 80a9 7e6f 4f83 ea94 8308 8892
000000b0: 5aa8 8890 9460 a55b 708d b36e 427a 777d
000000c0: 798c 98b7 c073 5ec1 70ad b361 ac72 a489
000000d0: 98a0 ae74 c4aa 7855 8e7b 01b4 8eff 8a9a
000000e0: 54b2 8b98 9851 0e4c 6f62 a696 3d76 7679
000000f0: 7d88 6390 b779 5e9d 7491 a262 4777 7e86
-0.037942655 0.32251257 0.48376885 0.24662726 0.0 -0.094856635 -0.06639965 0.1327993
-0.018971328 0.27508426 0.08537097 0.028456992 0.1327993 -0.07588531 0.2655986 0.018971328
-0.037942655 0.018971328 0.037942655 -0.18971327 0.018971328 0.28456992 0.0 -0.1327993
-0.37942654 -0.24662726 -0.094856635 0.08537097 0.018971328 -0.71142477 0.047428317 0.028456992
-0.2371416 0.08537097 0.056913983 0.104342304 0.14228496 0.07588531 -0.3130269 -0.08537097
-0.17074195 0.06639965 0.3983979 -0.21817027 0.37942654 -0.06639965 -0.07588531 -0.018971328
-0.07588531 0.45531186 0.66399646 0.4458262 0.25611293 -0.094856635 -0.2371416 0.2371416
-0.113827966 0.36994088 0.36994088 -0.19919895 0.06639965 -0.1327993 0.22765593 0.018971328
0.009485664 0.009485664 0.17074195 -0.094856635 0.4742832 0.30354124 -0.028456992 -0.28456992
0.047428317 -0.58811116 0.028456992 0.22765593 0.047428317 0.8157671 0.056913983 0.056913983
-0.25611293 0.113827966 0.094856635 0.14228496 0.17074195 0.12331363 1.0623944 -0.056913983
-0.17074195 -0.2371416 0.056913983 -0.009485664 0.64502513 -0.094856635 -0.094856635 -0.009485664
-0.028456992 0.24662726 0.3130269 0.14228496 0.27508426 -0.037942655 -0.20868461 0.20868461
-0.094856635 0.14228496 0.17074195 -0.20868461 -0.5596542 -0.056913983 -0.009485664 -0.009485664
0.047428317 -0.009485664 0.2371416 0.22765593 0.018971328 0.009485664 -0.018971328 -0.14228496
-0.009485664 -0.2655986 0.047428317 0.21817027 -0.17074195 0.056913983 0.009485664 0.018971328
-0.104342304 0.009485664 0.056913983 0.037942655 0.018971328 0.094856635 -0.71142477 0.0
-0.056913983 0.009485664 -0.28456992 -0.2371416 0.18971327 -0.018971328 -0.037942655 0.018971328
-0.047428317 0.009485664 0.5501685 0.2655986 0.047428317 -0.14228496 -0.056913983 0.18971327
-0.028456992 0.29405558 0.104342304 0.056913983 0.19919895 -0.104342304 0.3130269 0.037942655
-0.018971328 0.15177062 0.047428317 -0.27508426 -0.018971328 0.36994088 -0.037942655 -0.18022761
-0.48376885 0.009485664 0.986509 0.17074195 0.009485664 -1.157251 0.056913983 0.15177062
-0.37942654 0.36045521 0.056913983 0.1327993 0.17074195 -0.32251257 0.33199823 -0.36994088
-0.17074195 0.104342304 0.46479753 -0.18971327 -0.6070825 -0.07588531 -0.104342304 -0.047428317
-0.08537097 0.094856635 0.20868461 0.5027402 0.58811116 -0.14228496 -0.3414839 0.5975968
-0.17074195 0.40788355 0.46479753 -0.3130269 0.3983979 -0.15177062 0.32251257 0.06639965
0.20868461 0.28456992 0.41736922 -0.1327993 0.6260538 0.37942654 -0.094856635 -0.42685488
0.113827966 -0.06639965 -1.2236507 0.4742832 0.113827966 1.1857079 0.07588531 0.22765593
-0.43634054 0.45531186 0.08537097 0.20868461 0.20868461 -0.46479753 -1.100337 -0.51222587
-0.18022761 -0.30354124 0.3414839 0.18971327 -0.6545108 -0.113827966 -0.113827966 -0.08537097
-0.047428317 0.056913983 -0.29405558 0.1327993 0.5027402 -0.08537097 -0.3414839 0.25611293
-0.1327993 0.14228496 0.30354124 -0.30354124 -0.5596542 -0.104342304 -0.037942655 0.037942655

MobilenetV2/expanded_conv_1/expand/weights_quant/FakeQuantWithMinMaxVars u1 [48, 1, 1, 8] scale=0.012722025 zero_point=151
00000000: bc7f 2905 9ba8 99bc 9691 9897 938d 9a98
00000010: 8e99 9b92 9697 9796 9797 9495 989c 9b99
00000020: 9a97 a091 9797 9799 a3ff 8f9e 8fa5 8896
00000030: 9996 9895 989b 9884 8d98 9796 9897 9797
00000040: 9485 928d a7ab b29b 9592 9697 9792 9c98
00000050: 9897 9391 9696 9797 b29c 6156 8a97 8eae
00000060: a594 969c 9a99 9b9a 98a6 9ab6 4b83 6b7e
00000070: 9797 9d9f 9b9a 9c98 819c 8d93 96a1 9f35
00000080: 9d9b 8d88 9295 929c 9995 9797 98a1 8f94
00000090: 9498 8e9e 9797 9797 9e97 9293 958c 8c95
000000a0: 9898 9695 a093 9297 9a97 9394 a291 9398
000000b0: 3ca1 e14e 9f8a 8291 7395 7375 cade c5ac
000000c0: 9797 9999 8c99 9a97 9698 9899 9795 99a4
000000d0: 9a9c 9693 9596 988c a497 9998 9797 9799
000000e0: 9b9c 9da5 8386 8396 9996 9393 9596 9793
000000f0: dd96 e463 958b a47f 9896 9498 9789 a59b
0.47071493 -0.3053286 -1.3994228 -1.8574156 0.0508881 0.21627443 0.02544405 0.47071493
-0.012722025 -0.07633215 0.012722025 0.0 -0.0508881 -0.12722024 0.038166076 0.012722025
-0.11449822 0.02544405 0.0508881 -0.06361012 -0.012722025 0.0 0.0 -0.012722025
0.0 0.0 -0.038166076 -0.02544405 0.012722025 0.06361012 0.0508881 0.02544405
0.038166076 0.0 0.11449822 -0.07633215 0.0 0.0 0.0 0.02544405
0.1526643 1.3230906 -0.1017762 0.089054175 -0.1017762 0.17810835 -0.19083036 -0.012722025
0.02544405 -0.012722025 0.012722025 -0.02544405 0.012722025 0.0508881 0.012722025 -0.24171847
-0.12722024 0.012722025 0.0 -0.012722025 0.012722025 0.0 0.0 0.0
-0.038166076 -0.22899644 -0.06361012 -0.12722024 0.2035524 0.2544405 0.34349465 0.0508881
-0.02544405 -0.06361012 -0.012722025 0.0 0.0 -0.06361012 0.06361012 0.012722025
0.012722025 0.0 -0.0508881 -0.07633215 -0.012722025 -0.012722025 0.0 0.0
0.34349465 0.06361012 -0.6869893 -0.8269316 -0.16538632 0.0 -0.11449822 0.29260656
0.17810835 -0.038166076 -0.012722025 0.06361012 0.038166076 0.02544405 0.0508881 0.038166076
0.012722025 0.19083036 0.038166076 0.39438277 -0.9668739 -0.2544405 -0.5597691 -0.31805062
0.0 0.0 0.07633215 0.1017762 0.0508881 0.038166076 0.06361012 0.012722025
-0.27988455 0.06361012 -0.12722024 -0.0508881 -0.012722025 0.12722024 0.1017762 -1.2467585
0.07633215 0.0508881 -0.12722024 -0.19083036 -0.06361012 -0.02544405 -0.06361012 0.06361012
0.02544405 -0.02544405 0.0 0.0 0.012722025 0.12722024 -0.1017762 -0.038166076
-0.038166076 0.012722025 -0.11449822 0.089054175 0.0 0.0 0.0 0.0
0.089054175 0.0 -0.06361012 -0.0508881 -0.02544405 -0.13994227 -0.13994227 -0.02544405
0.012722025 0.012722025 -0.012722025 -0.02544405 0.11449822 -0.0508881 -0.06361012 0.0
0.038166076 0.0 -0.0508881 -0.038166076 0.13994227 -0.07633215 -0.0508881 0.012722025
-1.1577042 0.12722024 0.94142985 -0.9287078 0.1017762 -0.16538632 -0.26716253 -0.07633215
-0.45799288 -0.02544405 -0.45799288 -0.43254885 0.64882326 0.90326375 0.5852131 0.26716253
0.0 0.0 0.02544405 0.02544405 -0.13994227 0.02544405 0.038166076 0.0
-0.012722025 0.012722025 0.012722025 0.02544405 0.0 -0.02544405 0.02544405 0.16538632
0.038166076 0.06361012 -0.012722025 -0.0508881 -0.02544405 -0.012722025 0.012722025 -0.13994227
0.16538632 0.0 0.02544405 0.012722025 0.0 0.0 0.0 0.02544405
0.0508881 0.06361012 0.07633215 0.17810835 -0.2544405 -0.21627443 -0.2544405 -0.012722025
0.02544405 -0.012722025 -0.0508881 -0.0508881 -0.02544405 -0.012722025 0.0 -0.0508881
0.89054173 -0.012722025 0.9795959 -0.6615453 -0.02544405 -0.1526643 0.16538632 -0.3053286
0.012722025 -0.012722025 -0.038166076 0.012722025 0.0 -0.17810835 0.17810835 0.0508881

MobilenetV2/expanded_conv_1/project/weights_quant/FakeQuantWithMinMaxVars u1 [8, 1, 1, 48] scale=0.03071962 zero_point=122
00000000: 6374 a379 6d70 7af5 7a73 9468 6a7d 70c5
00000010: 7679 8c82 7f73 307b 767a 7a14 777b 716c
00000020: 6882 7c74 6f7d 7e57 827e 6f76 7c82 7793
00000030: a197 6601 9d6d 997e ba7d 7f62 54c0 767a
00000040: 8ca2 494f 7802 80a7 836e 547f 6a4b 8887
00000050: 6aa1 94a4 1baf 617c 8b6c 9483 9e88 c08b
00000060: 77bf 92bb c28c 8d7a 9853 7a82 9e66 6582
00000070: 6aab 34ae c85e 6182 d28b 417e c1bb 9c65
00000080: a48a 7e7b 8dd9 486a 7bbb 6f92 a599 6081
00000090: 83a2 6686 2a75 8897 8f95 7c79 8088 6b78
000000a0: 6e9c d27d 9a68 9473 a094 5e86 8e89 2f94
000000b0: 87ba a7a8 76b0 6095 6494 6f8e 9985 6d75
000000c0: 9a7b 818a 89a3 7c94 7e70 4594 777e 794c
000000d0: 7072 7377 7f7c 757f 7e65 765a 7780 7172
000000e0: 8184 7559 6c7a 7aff 557f 6c85 7d7b 6ec7
000000f0: 6877 a380 ab5b 7679 59ed 7e8c 6674 5f73
-0.70655125 -0.18431771 1.2595044 -0.03071962 -0.39935505 -0.3071962 0.0 3.7785132
0.0 -0.21503733 0.7987101 -0.5529531 -0.4915139 0.092158854 -0.3071962 2.3039715
-0.12287848 -0.03071962 0.5529531 0.24575695 0.1535981 -0.21503733 -2.2732518 0.03071962
-0.12287848 0.0 0.0 -3.1334012 -0.092158854 0.03071962 -0.27647656 -0.43007466
-0.5529531 0.24575695 0.06143924 -0.18431771 -0.3379158 0.092158854 0.12287848 -1.0751867
0.24575695 0.12287848 -0.3379158 -0.12287848 0.06143924 0.24575695 -0.092158854 0.76799047
1.1980652 0.89086896 -0.6143924 -3.717074 1.0751867 -0.39935505 0.9523082 0.12287848
1.9660556 0.092158854 0.1535981 -0.73727083 -1.1673455 2.1503735 -0.12287848 0.0
0.5529531 1.2287848 -1.5052613 -1.3209436 -0.06143924 -3.6863544 0.18431771 1.3823829
0.27647656 -0.36863542 -1.1673455 0.1535981 -0.4915139 -1.4438221 0.43007466 0.39935505
-0.4915139 1.1980652 0.7987101 1.290224 -2.9183638 1.6281399 -0.76799047 0.06143924
0.52223355 -0.43007466 0.7987101 0.27647656 1.1059062 0.43007466 2.1503735 0.52223355
-0.092158854 2.1196537 0.73727083 1.9967753 2.2118125 0.5529531 0.58367276 0.0
0.9215886 -1.1980652 0.0 0.24575695 1.1059062 -0.6143924 -0.645112 0.24575695
-0.4915139 1.5052613 -2.1503735 1.5974202 2.3961303 -0.8601493 -0.76799047 0.24575695
2.7033265 0.52223355 -1.7510183 0.12287848 2.181093 1.9967753 1.0444671 -0.645112
1.290224 0.4915139 0.12287848 0.03071962 0.58367276 2.9183638 -1.5359809 -0.4915139
0.03071962 1.9967753 -0.3379158 0.73727083 1.3209436 0.9523082 -0.7987101 0.21503733
0.27647656 1.2287848 -0.6143924 0.36863542 -2.4575696 -0.1535981 0.43007466 0.89086896
0.645112 0.82942975 0.06143924 -0.03071962 0.18431771 0.43007466 -0.4607943 -0.06143924
-0.36863542 1.0444671 2.7033265 0.092158854 0.9830278 -0.5529531 0.7987101 -0.21503733
1.1673455 0.7987101 -0.8601493 0.36863542 0.6143924 0.4607943 -2.3039715 0.7987101
0.39935505 1.9660556 1.3823829 1.4131025 -0.12287848 1.6588595 -0.7987101 0.82942975
-0.6758316 0.7987101 -0.3379158 0.6143924 0.9523082 0.3379158 -0.39935505 -0.1535981
0.9830278 0.03071962 0.21503733 0.4915139 0.4607943 1.2595044 0.06143924 0.7987101
0.12287848 -0.3071962 -1.6281399 0.7987101 -0.092158854 0.12287848 -0.03071962 -1.4131025
-0.3071962 -0.24575695 -0.21503733 -0.092158854 0.1535981 0.06143924 -0.1535981 0.1535981
0.12287848 -0.645112 -0.12287848 -0.9830278 -0.092158854 0.18431771 -0.27647656 -0.24575695
0.21503733 0.3071962 -0.1535981 -1.0137475 -0.43007466 0.0 0.0 4.0857096
-1.1366259 0.1535981 -0.43007466 0.3379158 0.092158854 0.03071962 -0.36863542 2.3654106
-0.5529531 -0.092158854 1.2595044 0.18431771 1.5052613 -0.9523082 -0.12287848 -0.03071962
-1.0137475 3.5327563 0.12287848 0.5529531 -0.6143924 -0.18431771 -0.82942975 -0.21503733

MobilenetV2/expanded_conv_10/depthwise/weights_quant/FakeQuantWithMinMaxVars u1 [1, 3, 3, 144] scale=0.023840602 zero_point=103
00000000: 6666 6564 6a7c 666c 7a5f 6466 6968 6766
00000010: 6364 6070 6b65 665c 696b 596a 6264 726c
00000020: 6a6b 7263 6362 6268 6464 626a 666c 6667
00000030: 6662 6062 646b 5c68 6761 6867 6562 766c
00000040: 7266 685d 6a68 6468 5f66 6764 465c 6a6a
00000050: 5560 6868 6767 6b5c 6964 7368 6f69 6c67
00000060: 605e 6165 6268 6b66 6a69 6473 6968 635c
00000070: 696a 5f5f 645e 7066 6463 6d65 8961 6776
00000080: 6e69 6a6e 656f 5e6a 6e65 6160 6866 6060
00000090: 6b70 6861 6d54 5576 9e61 5d65 6d6a 706c
000000a0: 5f73 6974 6a63 6961 5a69 6a5a 675c 596e
000000b0: 6a78 9561 646c 6773 6060 6861 6165 6b6b
000000c0: 6763 7c71 6f66 6279 665c 6c75 6165 8770
000000d0: 675a 685f 6971 636a 6d79 7361 5b5c 7570
000000e0: 8767 745e 615e 756c 6a62 6f75 5168 6066
000000f0: 635b 5b5d 6074 7166 706f 626d 6554 5666
-0.023840602 -0.023840602 -0.047681205 -0.071521804 0.071521804 0.5006527 -0.023840602 0.119203016
0.45297146 -0.19072482 -0.071521804 -0.023840602 0.047681205 0.023840602 0.0 -0.023840602
-0.09536241 -0.071521804 -0.16688421 0.21456543 0.09536241 -0.047681205 -0.023840602 -0.26224664
0.047681205 0.09536241 -0.33376843 0.071521804 -0.119203016 -0.071521804 0.26224664 0.119203016
0.071521804 0.09536241 0.26224664 -0.09536241 -0.09536241 -0.119203016 -0.119203016 0.023840602
-0.071521804 -0.071521804 -0.119203016 0.071521804 -0.023840602 0.119203016 -0.023840602 0.0
-0.023840602 -0.119203016 -0.16688421 -0.119203016 -0.071521804 0.09536241 -0.26224664 0.023840602
0.0 -0.14304361 0.023840602 0.0 -0.047681205 -0.119203016 0.35760903 0.119203016
0.26224664 -0.023840602 0.023840602 -0.23840603 0.071521804 0.023840602 -0.071521804 0.023840602
-0.19072482 -0.023840602 0.0 -0.071521804 -0.7867399 -0.26224664 0.071521804 0.071521804
-0.42913085 -0.16688421 0.023840602 0.023840602 0.0 0.0 0.09536241 -0.26224664
0.047681205 -0.071521804 0.28608721 0.023840602 0.19072482 0.047681205 0.119203016 0.0
-0.16688421 -0.21456543 -0.14304361 -0.047681205 -0.119203016 0.023840602 0.09536241 -0.023840602
0.071521804 0.047681205 -0.071521804 0.28608721 0.047681205 0.023840602 -0.09536241 -0.26224664
0.047681205 0.071521804 -0.19072482 -0.19072482 -0.071521804 -0.21456543 0.21456543 -0.023840602
-0.071521804 -0.09536241 0.14304361 -0.047681205 0.8105805 -0.14304361 0.0 0.35760903
0.16688421 0.047681205 0.071521804 0.16688421 -0.047681205 0.19072482 -0.21456543 0.071521804
0.16688421 -0.047681205 -0.14304361 -0.16688421 0.023840602 -0.023840602 -0.16688421 -0.16688421
0.09536241 0.21456543 0.023840602 -0.14304361 0.14304361 -0.45297146 -0.42913085 0.35760903
1.3112332 -0.14304361 -0.23840603 -0.047681205 0.14304361 0.071521804 0.21456543 0.119203016
-0.19072482 0.28608721 0.047681205 0.30992782 0.071521804 -0.09536241 0.047681205 -0.14304361
-0.30992782 0.047681205 0.071521804 -0.30992782 0.0 -0.26224664 -0.33376843 0.16688421
0.071521804 0.40529025 1.0966678 -0.14304361 -0.071521804 0.119203016 0.0 0.28608721
-0.16688421 -0.16688421 0.023840602 -0.14304361 -0.14304361 -0.047681205 0.09536241 0.09536241
0.0 -0.09536241 0.5006527 0.23840603 0.19072482 -0.023840602 -0.119203016 0.42913085
-0.023840602 -0.26224664 0.119203016 0.33376843 -0.14304361 -0.047681205 0.7628993 0.21456543
0.0 -0.30992782 0.023840602 -0.19072482 0.047681205 0.23840603 -0.09536241 0.071521804
0.14304361 0.42913085 0.28608721 -0.14304361 -0.28608721 -0.26224664 0.33376843 0.21456543
0.7628993 0.0 0.30992782 -0.21456543 -0.14304361 -0.21456543 0.33376843 0.119203016
0.071521804 -0.119203016 0.19072482 0.33376843 -0.5244933 0.023840602 -0.16688421 -0.023840602
-0.09536241 -0.28608721 -0.28608721 -0.23840603 -0.16688421 0.30992782 0.23840603 -0.023840602
0.21456543 0.19072482 -0.119203016 0.14304361 -0.047681205 -0.45297146 -0.40529025 -0.023840602

MobilenetV2/expanded_conv_10/expand/weights_quant/FakeQuantWithMinMaxVars u1 [144, 1, 1, 24] scale=0.0014458435 zero_point=134
00000000: 9f9c 7ba4 8b85 9c30 6ca4 9c87 8692 758d
00000010: a477 6187 9baa 6c97 aa77 e08a 828e 8095
00000020: 7190 868b 9b93 8792 8d67 6177 7a8b 7d82
00000030: bdc7 9a7f 7e8a a16f 8471 6a84 625f 788f
00000040: 8972 887a 8467 9e96 987e 8289 8d54 9199
00000050: a996 a291 a75a 8f9b 938b 777f 799c 77a6
00000060: 8d94 8864 7a84 838b 939a ba89 8992 a08b
00000070: 7da8 735b 6c7c 8b7c 9082 847f 798a 947f
00000080: 8e86 8983 7e8e 7a7a 7879 8f8a 7b82 8087
00000090: 5184 b47b 9783 7784 a978 8b7d 9076 958c
000000a0: 7f84 729c 8f78 8688 9084 8185 828f 7087
000000b0: 927c 8895 8c8d 7556 9ca3 888a 7d73 6b89
000000c0: 9a80 8792 9b7c 8a86 6486 8490 6d85 928b
000000d0: 8a91 6972 8297 9899 8775 857b 8671 8a7e
000000e0: 978c 8977 8f83 7a8b 8d80 809e 8889 be8a
000000f0: 8b7e 8592 4e85 6982 8d8c 8d7e 8f91 977c
0.036146086 0.031808555 -0.015904278 0.043375306 0.0072292173 -0.0014458435 0.031808555 -0.12434254
-0.03759193 0.043375306 0.031808555 0.0014458435 0.0 0.017350122 -0.024579339 0.010120904
0.043375306 -0.021687653 -0.053496208 0.0014458435 0.030362714 0.052050367 -0.03759193 0.024579339
0.052050367 -0.021687653 0.13012591 0.005783374 -0.005783374 0.011566748 -0.008675061 0.021687653
-0.030362714 0.014458435 0.0 0.0072292173 0.030362714 0.018795965 0.0014458435 0.017350122
0.010120904 -0.044821147 -0.053496208 -0.021687653 -0.017350122 0.0072292173 -0.013012592 -0.005783374
0.079521395 0.09397983 0.02891687 -0.010120904 -0.011566748 0.005783374 0.039037775 -0.0332544
-0.002891687 -0.030362714 -0.040483616 -0.002891687 -0.052050367 -0.056387898 -0.020241808 0.013012592
0.0043375306 -0.02891687 0.002891687 -0.017350122 -0.002891687 -0.044821147 0.034700245 0.023133496
0.026025183 -0.011566748 -0.005783374 0.0043375306 0.010120904 -0.07229217 0.015904278 0.027471026
0.050604522 0.023133496 0.040483616 0.015904278 0.047712836 -0.06361711 0.013012592 0.030362714
0.018795965 0.0072292173 -0.021687653 -0.010120904 -0.018795965 0.031808555 -0.021687653 0.04626699
0.010120904 0.020241808 0.002891687 -0.049158677 -0.017350122 -0.002891687 -0.0043375306 0.0072292173
0.018795965 0.02891687 0.07518386 0.0043375306 0.0043375306 0.017350122 0.03759193 0.0072292173
-0.013012592 0.049158677 -0.027471026 -0.06217127 -0.03759193 -0.014458435 0.0072292173 -0.014458435
0.014458435 -0.005783374 -0.002891687 -0.010120904 -0.018795965 0.005783374 0.020241808 -0.010120904
0.011566748 0.0 0.0043375306 -0.0043375306 -0.011566748 0.011566748 -0.017350122 -0.017350122
-0.020241808 -0.018795965 0.013012592 0.005783374 -0.015904278 -0.005783374 -0.008675061 0.0014458435
-0.076629706 -0.002891687 0.0665088 -0.015904278 0.024579339 -0.0043375306 -0.021687653 -0.002891687
0.050604522 -0.020241808 0.0072292173 -0.013012592 0.014458435 -0.023133496 0.021687653 0.008675061
-0.010120904 -0.002891687 -0.02891687 0.031808555 0.013012592 -0.020241808 0.0 0.002891687
0.014458435 -0.002891687 -0.0072292173 -0.0014458435 -0.005783374 0.013012592 -0.031808555 0.0014458435
0.017350122 -0.014458435 0.002891687 0.021687653 0.008675061 0.010120904 -0.024579339 -0.06940049
0.031808555 0.04192946 0.002891687 0.005783374 -0.013012592 -0.027471026 -0.039037775 0.0043375306
0.02891687 -0.008675061 0.0014458435 0.017350122 0.030362714 -0.014458435 0.005783374 0.0
-0.049158677 0.0 -0.002891687 0.014458435 -0.036146086 -0.0014458435 0.017350122 0.0072292173
0.005783374 0.015904278 -0.04192946 -0.02891687 -0.005783374 0.024579339 0.026025183 0.027471026
0.0014458435 -0.024579339 -0.0014458435 -0.015904278 0.0 -0.030362714 0.005783374 -0.011566748
0.024579339 0.008675061 0.0043375306 -0.021687653 0.013012592 -0.0043375306 -0.017350122 0.0072292173
0.010120904 -0.008675061 -0.008675061 0.034700245 0.002891687 0.0043375306 0.08096723 0.005783374
0.0072292173 -0.011566748 -0.0014458435 0.017350122 -0.08096723 -0.0014458435 -0.04192946 -0.005783374
0.010120904 0.008675061 0.010120904 -0.011566748 0.013012592 0.015904278 0.024579339 -0.014458435

MobilenetV2/expanded_conv_10/project/weights_quant/FakeQuantWithMinMaxVars u1 [32, 1, 1, 144] scale=0.015989292 zero_point=121
00000000: 7478 9098 606e 598e 4888 a79c 6373 8588
00000010: 6a60 4878 536e 6964 8454 7d7d 8c7e 8c8e
00000020: 7563 7976 8251 6989 a062 8e88 9083 917c
00000030: 838c 7b80 9b60 7b91 656c 927d 7d63 86c1
00000040: 9c84 895f bd9c 6caa 73ad 787b 6f73 887e
00000050: 6650 7f7a 554a 709f 6282 8e73 8386 9073
00000060: 7595 998b 9a5f 906f 8c7a b162 6e5f 786d
00000070: 884f 767e 897b 1ea6 9a6b 6f7d 6784 815c
00000080: 7c83 8361 785e 7da1 727b 7b57 77af 4784
00000090: 9964 667a 467b 4c89 6e77 4a8b 95a3 897e
000000a0: 4f8b 777f 67ab 9682 70aa 7a86 7068 8e41
000000b0: 7ca1 6660 7f78 677f 876e 9697 8a7e 4d89
000000c0: 7382 547f 818f 6251 6ba0 9a84 5477 6974
000000d0: 757e 6e75 8761 969e 8f6e 7087 8194 7a60
000000e0: 7e91 5da2 7260 9c90 6086 6470 8f90 4597
000000f0: 7163 7e95 8363 9386 8c4b 8e6c 6b6a 758c
-0.07994646 -0.015989292 0.3677537 0.49566805 -0.39973232 -0.17588222 -0.51165736 0.33577514
-0.78347534 0.23983939 0.7355074 0.5596252 -0.35176444 -0.095935754 0.19187151 0.23983939
-0.23983939 -0.39973232 -0.78347534 -0.015989292 -0.6075931 -0.17588222 -0.25582868 -0.33577514
0.17588222 -0.5916038 0.06395717 0.06395717 0.30379656 0.07994646 0.30379656 0.33577514
-0.06395717 -0.35176444 0.0 -0.047967877 0.14390363 -0.63957167 -0.25582868 0.25582868
0.6235824 -0.3677537 0.33577514 0.23983939 0.3677537 0.15989292 0.38374302 0.047967877
0.15989292 0.30379656 0.031978585 0.11192505 0.54363596 -0.39973232 0.031978585 0.38374302
-0.31978583 -0.2078608 0.39973232 0.06395717 0.06395717 -0.35176444 0.2078608 1.151229
0.5596252 0.17588222 0.25582868 -0.4157216 1.0872719 0.5596252 -0.2078608 0.78347534
-0.095935754 0.8314432 -0.015989292 0.031978585 -0.15989292 -0.095935754 0.23983939 0.07994646
-0.30379656 -0.655561 0.095935754 0.015989292 -0.5756145 -0.75149673 -0.14390363 0.6075931
-0.3677537 0.14390363 0.33577514 -0.095935754 0.15989292 0.2078608 0.3677537 -0.095935754
-0.06395717 0.4477002 0.51165736 0.28780726 0.52764666 -0.4157216 0.3677537 -0.15989292
0.30379656 0.015989292 0.8954004 -0.3677537 -0.17588222 -0.4157216 -0.015989292 -0.19187151
0.23983939 -0.6715503 -0.047967877 0.07994646 0.25582868 0.031978585 -1.4550256 0.7195182
0.52764666 -0.2238501 -0.15989292 0.06395717 -0.28780726 0.17588222 0.12791434 -0.46368948
0.047967877 0.15989292 0.15989292 -0.38374302 -0.015989292 -0.4317109 0.06395717 0.63957167
-0.11192505 0.031978585 0.031978585 -0.54363596 -0.031978585 0.8634218 -0.79946464 0.17588222
0.51165736 -0.33577514 -0.30379656 0.015989292 -0.8154539 0.031978585 -0.7195182 0.25582868
-0.17588222 -0.031978585 -0.75149673 0.28780726 0.4477002 0.6715503 0.25582868 0.07994646
-0.6715503 0.28780726 -0.031978585 0.095935754 -0.28780726 0.79946464 0.46368948 0.14390363
-0.14390363 0.78347534 0.015989292 0.2078608 -0.14390363 -0.27181798 0.33577514 -0.8954004
0.047967877 0.63957167 -0.30379656 -0.39973232 0.095935754 -0.015989292 -0.28780726 0.095935754
0.2238501 -0.17588222 0.46368948 0.47967878 0.27181798 0.07994646 -0.7035289 0.25582868
-0.095935754 0.14390363 -0.5916038 0.095935754 0.12791434 0.35176444 -0.3677537 -0.63957167
-0.2238501 0.6235824 0.52764666 0.17588222 -0.5916038 -0.031978585 -0.25582868 -0.07994646
-0.06395717 0.07994646 -0.17588222 -0.06395717 0.2238501 -0.38374302 0.46368948 0.5916038
0.35176444 -0.17588222 -0.14390363 0.2238501 0.12791434 0.4317109 0.015989292 -0.39973232
0.07994646 0.38374302 -0.4477002 0.655561 -0.11192505 -0.39973232 0.5596252 0.3677537
-0.39973232 0.2078608 -0.33577514 -0.14390363 0.35176444 0.3677537 -0.8314432 0.47967878
-0.12791434 -0.35176444 0.07994646 0.4477002 0.15989292 -0.35176444 0.4157216 0.2078608
0.30379656 -0.7355074 0.33577514 -0.2078608 -0.2238501 -0.23983939 -0.06395717 0.30379656

MobilenetV2/expanded_conv_11/depthwise/weights_quant/FakeQuantWithMinMaxVars u1 [1, 3, 3, 192] scale=0.03318448 zero_point=121
00000000: 857b 757b 6e7c 8a83 718e 8592 856b 767e
00000010: 7873 8c72 6c7a 7672 6b91 7e7b 6a6c 7385
00000020: 6e81 8388 7c7b 7078 f571 798e 7975 8277
00000030: 8572 797a 6c7e 9385 9373 79c0 878d 8882
00000040: 7b72 7585 7d83 6d77 7d7a 8183 8274 75b4
00000050: 8271 7173 677b 589b 6e7b 757b 776e 6a82
00000060: 9640 7d79 787b 976f 8383 7276 8889 7d75
00000070: 7690 797a 7b8b 397c 6988 7b70 7978 8665
00000080: 7a74 7e71 8994 8b67 8374 8d79 7284 6b85
00000090: 8b6f 7786 7d86 7772 7376 6409 7073 716a
000000a0: 6976 6f94 7686 7c75 968f 776e 7f6c 6f76
000000b0: 7c73 7679 8072 7c71 7c78 7984 6f73 8079
000000c0: 5a84 786d 71a3 6970 6f90 7e60 8f7b 698d
000000d0: 8d73 7f72 5775 7164 65a7 9c80 6a6b 72af
000000e0: 919e 9187 537e 8272 0164 7bbd 746a 7367
000000f0: 9368 69ad 777e 8d7c 965c ade6 9065 8d67
0.39821374 0.06636896 -0.13273792 0.06636896 -0.36502928 0.099553436 0.56413615 0.3318448
-0.26547584 0.6968741 0.39821374 0.829612 0.39821374 -0.4645827 -0.099553436 0.1659224
-0.03318448 -0.19910687 0.63050514 -0.23229136 -0.43139824 0.03318448 -0.099553436 -0.23229136
-0.4645827 0.7964275 0.1659224 0.06636896 -0.4977672 -0.43139824 -0.19910687 0.39821374
-0.36502928 0.26547584 0.3318448 0.4977672 0.099553436 0.06636896 -0.2986603 -0.03318448
4.1148753 -0.26547584 0.0 0.6968741 0.0 -0.13273792 0.2986603 -0.06636896
0.39821374 -0.23229136 0.0 0.03318448 -0.43139824 0.1659224 0.8627965 0.39821374
0.8627965 -0.19910687 0.0 2.3560982 0.4645827 0.6636896 0.4977672 0.2986603
0.06636896 -0.23229136 -0.13273792 0.39821374 0.13273792 0.3318448 -0.39821374 -0.06636896
0.13273792 0.03318448 0.26547584 0.3318448 0.2986603 -0.1659224 -0.13273792 1.9578843
0.2986603 -0.26547584 -0.26547584 -0.19910687 -0.5973206 0.06636896 -1.0950879 1.1282723
-0.36502928 0.06636896 -0.13273792 0.06636896 -0.06636896 -0.36502928 -0.4977672 0.2986603
0.9623499 -1.8915154 0.13273792 0.0 -0.03318448 0.06636896 0.9955344 -0.3318448
0.3318448 0.3318448 -0.23229136 -0.099553436 0.4977672 0.5309517 0.13273792 -0.13273792
-0.099553436 0.763243 0.0 0.03318448 0.06636896 0.5973206 -2.1238067 0.099553436
-0.5309517 0.4977672 0.06636896 -0.2986603 0.0 -0.03318448 0.43139824 -0.6636896
0.03318448 -0.1659224 0.1659224 -0.26547584 0.5309517 0.89598095 0.5973206 -0.5973206
0.3318448 -0.1659224 0.6636896 0.0 -0.23229136 0.36502928 -0.4645827 0.39821374
0.5973206 -0.3318448 -0.06636896 0.43139824 0.13273792 0.43139824 -0.06636896 -0.23229136
-0.19910687 -0.099553436 -0.6968741 -3.7166617 -0.2986603 -0.19910687 -0.26547584 -0.4977672
-0.5309517 -0.099553436 -0.3318448 0.89598095 -0.099553436 0.43139824 0.099553436 -0.13273792
0.9623499 0.73005855 -0.06636896 -0.36502928 0.19910687 -0.43139824 -0.3318448 -0.099553436
0.099553436 -0.19910687 -0.099553436 0.0 0.23229136 -0.23229136 0.099553436 -0.26547584
0.099553436 -0.03318448 0.0 0.36502928 -0.3318448 -0.19910687 0.23229136 0.0
-1.0287188 0.36502928 -0.03318448 -0.39821374 -0.26547584 1.3937482 -0.5309517 -0.2986603
-0.3318448 0.763243 0.1659224 -0.829612 0.73005855 0.06636896 -0.5309517 0.6636896
0.6636896 -0.19910687 0.19910687 -0.23229136 -1.1282723 -0.13273792 -0.26547584 -0.6968741
-0.6636896 1.526486 1.1614568 0.23229136 -0.4977672 -0.4645827 -0.23229136 1.7919619
0.7964275 1.2278258 0.7964275 0.4645827 -1.2610103 0.1659224 0.2986603 -0.23229136
-3.9821377 -0.6968741 0.06636896 2.2565446 -0.1659224 -0.4977672 -0.19910687 -0.5973206
0.8627965 -0.56413615 -0.5309517 1.725593 -0.06636896 0.1659224 0.6636896 0.099553436
0.9623499 -0.9623499 1.725593 3.6171083 0.763243 -0.6636896 0.6636896 -0.5973206

MobilenetV2/expanded_conv_11/expand/weights_quant/FakeQuantWithMinMaxVars u1 [192, 1, 1, 32] scale=0.0017185006 zero_point=136
00000000: 8d89 9381 9084 817f 7c7b 9b8e 8a83 8586
00000010: 9c7a 758b 8795 7e83 9282 7f96 978e 9496
00000020: 7da0 8ab5 816e a192 94ad 577e 9590 a08d
00000030: 4ed7 a96e 9765 9b87 5698 b366 7774 5e6e
00000040: 8c90 8f7f 907f 8690 917c 9586 7c94 8b90
00000050: 8d90 8c7d 8b7e 8899 9879 8586 8e82 9280
00000060: 689b 8f7a 8081 9489 9a5d 7bbd 5a57 7474
00000070: c08b b88c 7d79 7b86 90a7 6c74 7c79 8264
00000080: a452 5f92 9a92 74af 9ea9 8683 5577 73a5
00000090: 9d83 a0e2 875d 8462 8b9b 8399 9a6f 7c6e
000000a0: 7c89 9697 9e81 8089 8f8c 8b74 8272 ac9a
000000b0: 7c85 7d86 8174 85a4 8d82 899d 9e8d 8386
000000c0: b381 797f 6e7c 7977 6a74 8093 8e98 77ba
000000d0: 7cb5 7089 8383 82be a3d5 8b91 8289 779f
000000e0: 7c88 7e8f 8b86 83a8 9081 8f82 8483 9474
000000f0: 9081 7f83 7f8b 756e a072 8c88 848e ad7b
0.008592503 0.0017185006 0.018903507 -0.012029504 0.013748005 -0.0068740025 -0.012029504 -0.015466506
-0.020622008 -0.022340508 0.032651514 0.010311004 0.0034370013 -0.008592503 -0.005155502 -0.0034370013
0.034370013 -0.024059009 -0.032651514 0.005155502 -0.0017185006 0.022340508 -0.017185006 -0.008592503
0.017185006 -0.010311004 -0.015466506 0.024059009 0.02577751 0.010311004 0.020622008 0.024059009
-0.018903507 0.041244015 0.0034370013 0.07733253 -0.012029504 -0.044681016 0.042962514 0.017185006
0.020622008 0.06358452 -0.08420653 -0.017185006 0.022340508 0.013748005 0.041244015 0.008592503
-0.09967303 0.13576154 0.05671052 -0.044681016 0.02577751 -0.060147524 0.032651514 -0.0017185006
-0.08592503 0.02749601 0.07389553 -0.05842902 -0.02921451 -0.034370013 -0.07217702 -0.044681016
0.0068740025 0.013748005 0.012029504 -0.015466506 0.013748005 -0.015466506 -0.0034370013 0.013748005
0.015466506 -0.020622008 0.022340508 -0.0034370013 -0.020622008 0.020622008 0.005155502 0.013748005
0.008592503 0.013748005 0.0068740025 -0.018903507 0.005155502 -0.017185006 0.0 0.02921451
0.02749601 -0.02577751 -0.005155502 -0.0034370013 0.010311004 -0.010311004 0.017185006 -0.013748005
-0.05499202 0.032651514 0.012029504 -0.024059009 -0.013748005 -0.012029504 0.020622008 0.0017185006
0.030933011 -0.07389553 -0.022340508 0.09108053 -0.07905103 -0.08420653 -0.034370013 -0.034370013
0.096236035 0.005155502 0.08248803 0.0068740025 -0.018903507 -0.02577751 -0.022340508 -0.0034370013
0.013748005 0.05327352 -0.048118018 -0.034370013 -0.020622008 -0.02577751 -0.010311004 -0.061866023
0.048118018 -0.09279904 -0.070458524 0.017185006 0.030933011 0.017185006 -0.034370013 0.06702153
0.037807014 0.05671052 -0.0034370013 -0.008592503 -0.087643534 -0.02921451 -0.03608851 0.049836516
0.03608851 -0.008592503 0.041244015 0.15466505 -0.0017185006 -0.07389553 -0.0068740025 -0.06530303
0.005155502 0.032651514 -0.008592503 0.02921451 0.030933011 -0.042962514 -0.020622008 -0.044681016
-0.020622008 0.0017185006 0.024059009 0.02577751 0.037807014 -0.012029504 -0.013748005 0.0017185006
0.012029504 0.0068740025 0.005155502 -0.034370013 -0.010311004 -0.037807014 0.061866023 0.030933011
-0.020622008 -0.005155502 -0.018903507 -0.0034370013 -0.012029504 -0.034370013 -0.005155502 0.048118018
0.008592503 -0.010311004 0.0017185006 0.03608851 0.037807014 0.008592503 -0.008592503 -0.0034370013
0.07389553 -0.012029504 -0.02577751 -0.015466506 -0.044681016 -0.020622008 -0.02577751 -0.02921451
-0.05155502 -0.034370013 -0.013748005 0.018903507 0.010311004 0.02749601 -0.02921451 0.08592503
-0.020622008 0.07733253 -0.041244015 0.0017185006 -0.008592503 -0.008592503 -0.010311004 0.09279904
0.04639952 0.13232455 0.005155502 0.015466506 -0.010311004 0.0017185006 -0.02921451 0.039525516
-0.020622008 0.0 -0.017185006 0.012029504 0.005155502 -0.0034370013 -0.008592503 0.05499202
0.013748005 -0.012029504 0.012029504 -0.010311004 -0.0068740025 -0.008592503 0.020622008 -0.034370013
0.013748005 -0.012029504 -0.015466506 -0.008592503 -0.015466506 0.005155502 -0.032651514 -0.044681016
0.041244015 -0.037807014 0.0068740025 0.0 -0.0068740025 0.010311004 0.06358452 -0.022340508

MobilenetV2/expanded_conv_11/project/weights_quant/FakeQuantWithMinMaxVars u1 [32, 1, 1, 192] scale=0.013914856 zero_point=134
00000000: 81a0 9e8c 7aae 6c9c 728e 7f7c 70a2 9193
00000010: 9c97 9669 8885 9671 7979 6e8f 817a 9160
00000020: 8276 8c78 7f85 82b1 958d 6c6d 9d75 8899
00000030: 7776 6581 82a8 709d 8b7e 7162 8361 7d7d
00000040: 799d 9375 6897 66af 8968 747d b98f a890
00000050: 94b2 8b89 7975 b182 a179 9f53 8197 c68f
00000060: 6976 9f86 8776 9384 89a6 7f93 a07b 5d97
00000070: 9379 7399 5e9c 7698 5e7c 87a4 7378 8082
00000080: 746d 9a82 7287 7894 93a1 7a95 9c9a 9c7f
00000090: 578d 7ec7 6555 6e8c 8a78 6fa7 97b6 a593
000000a0: a18a 9b9d 6f85 a1a5 7184 8389 8485 c277
000000b0: b677 7ca6 7d7d b299 5e80 89b9 757c a377
000000c0: 8d84 8b99 8684 8389 8d6e 9189 9d8a 8a6f
000000d0: 6581 956b 8a89 8193 7778 7c81 7ba7 798e
000000e0: 9b89 8584 8794 8581 7f85 848e 7986 7a89
000000f0: 7d7e 8276 8a8d 866a 878a 8c94 7e86 8b89
-0.06957428 0.36178625 0.33395654 0.083489135 -0.16697827 0.55659425 -0.36178625 0.30612683
-0.27829713 0.11131885 -0.097403996 -0.13914856 -0.30612683 0.38961598 0.15306342 0.18089312
0.30612683 0.23655255 0.2226377 -0.40353084 0.027829712 -0.013914856 0.2226377 -0.29221198
-0.18089312 -0.18089312 -0.33395654 0.12523371 -0.06957428 -0.16697827 0.15306342 -0.52876455
-0.055659425 -0.2226377 0.083489135 -0.19480799 -0.097403996 -0.013914856 -0.055659425 0.59833884
0.20872284 0.097403996 -0.36178625 -0.3478714 0.3200417 -0.23655255 0.027829712 0.26438227
-0.20872284 -0.2226377 -0.45919025 -0.06957428 -0.055659425 0.4731051 -0.30612683 0.3200417
0.06957428 -0.11131885 -0.29221198 -0.50093484 -0.041744567 -0.51484966 -0.12523371 -0.12523371
-0.18089312 0.3200417 0.18089312 -0.23655255 -0.4174457 0.23655255 -0.4452754 0.5705091
0.041744567 -0.4174457 -0.25046742 -0.12523371 0.70965767 0.12523371 0.4731051 0.13914856
0.19480799 0.61225367 0.06957428 0.041744567 -0.18089312 -0.23655255 0.59833884 -0.055659425
0.37570113 -0.18089312 0.3478714 -0.70965767 -0.06957428 0.23655255 0.8905508 0.12523371
-0.40353084 -0.2226377 0.3478714 0.0 0.013914856 -0.2226377 0.18089312 -0.027829712
0.041744567 0.4452754 -0.097403996 0.18089312 0.36178625 -0.15306342 -0.5705091 0.23655255
0.18089312 -0.18089312 -0.26438227 0.26438227 -0.55659425 0.30612683 -0.2226377 0.25046742
-0.55659425 -0.13914856 0.013914856 0.4174457 -0.26438227 -0.19480799 -0.083489135 -0.055659425
-0.25046742 -0.3478714 0.27829713 -0.055659425 -0.27829713 0.013914856 -0.19480799 0.19480799
0.18089312 0.37570113 -0.16697827 0.20872284 0.30612683 0.27829713 0.30612683 -0.097403996
-0.65399826 0.097403996 -0.11131885 0.9044657 -0.45919025 -0.68182796 -0.33395654 0.083489135
0.055659425 -0.19480799 -0.3200417 0.45919025 0.23655255 0.6679131 0.43136054 0.18089312
0.37570113 0.055659425 0.29221198 0.3200417 -0.3200417 -0.013914856 0.37570113 0.43136054
-0.29221198 -0.027829712 -0.041744567 0.041744567 -0.027829712 -0.013914856 0.8348914 -0.20872284
0.6679131 -0.20872284 -0.13914856 0.4452754 -0.12523371 -0.12523371 0.61225367 0.26438227
-0.55659425 -0.083489135 0.041744567 0.70965767 -0.23655255 -0.13914856 0.40353084 -0.20872284
0.097403996 -0.027829712 0.06957428 0.26438227 0.0 -0.027829712 -0.041744567 0.041744567
0.097403996 -0.33395654 0.15306342 0.041744567 0.3200417 0.055659425 0.055659425 -0.3200417
-0.45919025 -0.06957428 0.20872284 -0.37570113 0.055659425 0.041744567 -0.06957428 0.18089312
-0.20872284 -0.19480799 -0.13914856 -0.06957428 -0.15306342 0.45919025 -0.18089312 0.11131885
0.29221198 0.041744567 -0.013914856 -0.027829712 0.013914856 0.19480799 -0.013914856 -0.06957428
-0.097403996 -0.013914856 -0.027829712 0.11131885 -0.18089312 0.0 -0.16697827 0.041744567
-0.12523371 -0.11131885 -0.055659425 -0.2226377 0.055659425 0.097403996 0.0 -0.38961598
0.013914856 0.055659425 0.083489135 0.19480799 -0.11131885 0.0 0.06957428 0.041744567
